model/model_weights.pth (torch, 604464 bytes, 21 tensors)

rnn.weight_ih_l0 f4 [128, 4]
0	0x3d761d44	0.060086504
1	0x3e14af0f	0.14519905
2	0xbd3353ec	-0.043781206
3	0x3a8859a0	0.0010402687
4	0x3c65e27d	0.01403105
5	0xbcc890fc	-0.024483196
6	0xbda2ef75	-0.07955829
7	0xbcdc1ff6	-0.026870709
8	0x3d11a97a	0.035562016
9	0x3d47723a	0.04869292
10	0x3da35f64	0.07977179
11	0x3d998437	0.07495921
12	0xbd13b208	-0.036058456
13	0xbe16fecc	-0.14745635
14	0xbd83df19	-0.06439037
15	0xbd73ef81	-0.05955458
16	0xbd594960	-0.05304849
17	0xbdca26c2	-0.09870674
18	0xbd07a5bd	-0.033117045
19	0x3c9ee423	0.019395893
20	0xba9e995d	-0.0012100149
21	0xbd3ef800	-0.04662323
22	0xbd869173	-0.06570711
23	0x3d346b7c	0.044047818
24	0x3d1f3df1	0.03887743
25	0xbd4947e1	-0.049140815
26	0x3d3a9282	0.045549877
27	0x3d8ce384	0.06879333
28	0x3d5715a2	0.052510865
29	0x3e1f4186	0.15552339
30	0x3db1810a	0.086671904
31	0x3d857903	0.06517222
32	0x3dca70cc	0.098847955
33	0x3d625133	0.05525322
34	0xbc828320	-0.015931666
35	0xbcc5c6d3	-0.024142658
36	0xbcdb6d75	-0.026785592
37	0x3e170932	0.14749601
38	0xbd88f7fa	-0.06687923
39	0x3c9733f9	0.0184574
40	0x3ce88ec8	0.028388396
41	0xbd5d294f	-0.053994473
42	0x3cce25f7	0.025164587
43	0xbd5738bf	-0.05254435
44	0x3c4dfb34	0.0125720985
45	0xbe0349fb	-0.1282119
46	0x3d3d059f	0.04614794
47	0xbd04e30d	-0.032443095
48	0x3ce88930	0.028385729
49	0x3ddb8831	0.10719336
50	0x3cb20874	0.021732546
51	0xbd99fd17	-0.07518976
52	0xbd8d0154	-0.06885019
53	0xbdcaad70	-0.09896362
54	0xbd49eda1	-0.049298886
55	0xbd48c459	-0.049015377
56	0xb84d961a	-4.90156e-05
57	0x3d8a8806	0.06764226
58	0x3d7b1443	0.06129862
59	0x3cc90163	0.024536794
60	0xbd237e66	-0.039915465
61	0x3e06e754	0.13174182
62	0x3aac6a85	0.0013154304
63	0x3d7e1041	0.06202722
64	0x3d709f22	0.05874551
65	0xbdc2a4fe	-0.09504126
66	0x3cea3705	0.028590688
67	0x3c2c56f4	0.010518778
68	0x3daa032b	0.083013855
69	0x3c40c747	0.011766261
70	0x3d8359f1	0.06413639
71	0x3d7046f5	0.05866142
72	0xbdb09e6b	-0.08623966
73	0x3d0797b3	0.033103656
74	0x3d83d241	0.06436587
75	0x3d9368b9	0.07197709
76	0xbd82413b	-0.06360098
77	0xbaebafa5	-0.0017981423
78	0xbd82a13d	-0.0637841
79	0xbc0cf303	-0.00860286
80	0xbbcc7d59	-0.0062405285
81	0xbe0f7c22	-0.14012197
82	0x3d9a2d55	0.07528178
83	0xbcbc5bbd	-0.022992963
84	0x3da33864	0.0796974
85	0xbc93ed93	-0.01805762
86	0xbbf23e29	-0.007392664
87	0x3c80328d	0.015649104
88	0xbd74eb31	-0.05979461
89	0x3e0f211a	0.13977471
90	0x3d4df73b	0.050284605
91	0x3ccf9783	0.025340801
92	0xbd1ad44d	-0.037800122
93	0xbde4d3f4	-0.11173239
94	0x3ceb9717	0.028758569
95	0xbd860f01	-0.065458305
96	0x3d50ed66	0.05100765
97	0x3dff270f	0.12458622
98	0x3d844c70	0.06459892
99	0x3c2c64e5	0.010522102
100	0xbda09697	-0.07841223
101	0xbcc96b07	-0.024587167
102	0x3ba7c942	0.0051204273
103	0xbd03d9b8	-0.032190055
104	0xbd08e685	-0.033422966
105	0x3d1d3b8d	0.03838687
106	0x3d9a4861	0.075333364
107	0x3d41cb0a	0.047312774
108	0x3d7fbcfc	0.06243609
109	0x3de62ab5	0.112386145
110	0x3d6f56f1	0.058432523
111	0xbcaebc5a	-0.021330047
112	0x3c1f24ad	0.009713334
113	0xbda42ec6	-0.08016734
114	0xbd7a072b	-0.061041992
115	0x3d962ed4	0.073331505
116	0x3d053d07	0.032528903
117	0xbe0d9738	-0.13827217
118	0x3ca57a6f	0.020199982
119	0xbda613bd	-0.081092335
120	0xbd950c5b	-0.07277747
121	0xbdde52db	-0.10855647
122	0x3d99086c	0.074723095
123	0xbc82a270	-0.015946597
124	0xbd3b4eb5	-0.045729358
125	0x3dedb44a	0.11606653
126	0x3ce7feaa	0.028319675
127	0xbcc588ce	-0.024113085
128	0xbc98d629	-0.018656807
129	0xbe024a93	-0.1272376
130	0xbdabd469	-0.083901234
131	0x3d88d514	0.066812664
132	0x3c5adf7b	0.013358946
133	0xbdef9496	-0.116982624
134	0x3d1bf70b	0.038077395
135	0xbd703521	-0.058644418
136	0xbd14bc5b	-0.036312442
137	0x3e01eaae	0.1268718
138	0x3cee1861	0.02906436
139	0xbc7a0bc8	-0.015261598
140	0x3d948555	0.072519936
141	0xbe10d2d5	-0.14142926
142	0x3d03c1ae	0.03216713
143	0x3ba6c182	0.005088986
144	0xbceb6157	-0.028732939
145	0xbdf211a9	-0.11819775
146	0x3d205265	0.039141078
147	0xbd93aecc	-0.07211074
148	0xbd3db0e7	-0.046311285
149	0xbba26628	-0.0049560256
150	0xbd56602a	-0.052337803
151	0x3d18bfde	0.037292354
152	0x3d382a34	0.044962123
153	0x3de83f08	0.11340147
154	0x3d659b05	0.05605604
155	0x3ccf091f	0.025272904
156	0x3c52a845	0.012857501
157	0xbde212fb	-0.110387765
158	0xbd86b2da	-0.06577082
159	0x3d898934	0.067156225
160	0x3ba96c30	0.0051703677
161	0xbe1dd0fb	-0.15411751
162	0x3d665039	0.05622885
163	0xbce0441c	-0.027376227
164	0x3ce7f76d	0.028316224
165	0x3dbe5ad2	0.09294666
166	0x3bc556e8	0.006022323
167	0xbd7f3838	-0.062309474
168	0x3c8e0d7b	0.017340412
169	0x3b15fc9f	0.002288617
170	0xbd624f35	-0.05525132
171	0xbd7f4d83	-0.06232978
172	0x3d49bb86	0.049251102
173	0x3b8b8543	0.0042578294
174	0x3d448215	0.04797562
175	0xbc3a7473	-0.011380303
176	0x3cf36ed4	0.029715933
177	0x3d366c1b	0.04453669
178	0x3c929fb0	0.01789841
179	0xbd96ca69	-0.073628254
180	0x3d956cde	0.072961554
181	0xbdb4cc88	-0.08828074
182	0x3d4c7198	0.04991302
183	0xbd87ba27	-0.066273026
184	0xbd90f248	-0.070774615
185	0xbe0bd2ca	-0.13654628
186	0xbd780d85	-0.06055977
187	0x3d0c4223	0.03424276
188	0x3b059825	0.0020384875
189	0x3d7085b0	0.058721244
190	0x3cf7e689	0.030261295
191	0x3d1c329a	0.038134195
192	0x3cfc90ca	0.03083076
193	0x3dd5d920	0.10441804
194	0x3d18135f	0.03712785
195	0x3c915c98	0.017744347
196	0xbd6fa74e	-0.058509164
197	0xbd8b7778	-0.06809896
198	0x3d688f75	0.056777436
199	0x3be19bbf	0.0068850215
200	0xbcd4ea2d	-0.02599057
201	0x3d2306eb	0.03980152
202	0x3d27f526	0.041005276
203	0x3d2bdc95	0.04195841
204	0xbd5fbe4a	-0.054624833
205	0xbcdd58c7	-0.027019871
206	0xbce55e26	-0.027998995
207	0x3c3c8398	0.011505984
208	0x3c7f125f	0.015568345
209	0xbc8d14bf	-0.017221807
210	0xbda32d58	-0.07967633
211	0xbd94d90b	-0.0726796
212	0xbafb809e	-0.0019188111
213	0xbc82f1c7	-0.015984429
214	0x3ba33243	0.004980357
215	0xbce4ed9b	-0.02794533
216	0x3d9db6c2	0.07700874
217	0x3e2aa885	0.16665848
218	0x3d81657e	0.06318186
219	0xbd27f0d7	-0.041001167
220	0xbd065da9	-0.032804165
221	0xbe0e29a0	-0.13883066
222	0xbca6630d	-0.020310903
223	0x3ce2e867	0.027698709
224	0x3d72c690	0.059271395
225	0xbcd95a1a	-0.026532222
226	0xbcce5618	-0.025187537
227	0xbd0aea95	-0.03391512
228	0xbd9cce17	-0.07656496
229	0x3e142ff5	0.14471419
230	0xbbcfabee	-0.0063376343
231	0x3d0641c5	0.032777566
232	0xbd3273ea	-0.043567576
233	0x3db6a9d6	0.089191124
234	0x3ce0078d	0.02734735
235	0xbd79fd86	-0.061032794
236	0x3c53a2c9	0.012917229
237	0xbd2ef3e1	-0.04271305
238	0xbb0e391c	-0.002170152
239	0x3c9f56f4	0.019450642
240	0x3db44a20	0.08803201
241	0x3e28293f	0.16421984
242	0xbd9c90ea	-0.07644828
243	0x3da56d57	0.080774955
244	0x3cda7884	0.026668794
245	0xbdee382e	-0.11631809
246	0xbd263381	-0.04057646
247	0x3d82e21e	0.06390785
248	0x3d1a2405	0.037632007
249	0x3e091b43	0.13389306
250	0x3d39c022	0.045349248
251	0x3da24e35	0.07925073
252	0xbd3aab54	-0.045573547
253	0xbc729141	-0.014805139
254	0x3d827a28	0.06370956
255	0xbd25e33d	-0.040499914

rnn.weight_hh_l0 f4 [128, 128]
0	0xbcde400a	-0.027130146
1	0x3d8128df	0.06306624
2	0x3d53663a	0.051611163
3	0x3d6ad9c6	0.05733659
4	0xbd950343	-0.07276013
5	0xbd84ac2d	-0.064781524
6	0xbd7544ec	-0.059880182
7	0xbd6e0554	-0.05811055
8	0x3dc030ba	0.09384294
9	0x3d8d0d3e	0.06887291
10	0x3be68e83	0.0070360317
11	0x3ccf4512	0.02530149
12	0xbc3a7179	-0.011379593
13	0x3c8c43c5	0.017122159
14	0x3db36985	0.08760361
15	0x3d6f82bf	0.0584743
16	0x3d6150dc	0.055008754
17	0x3d488124	0.048951283
18	0x3ca00800	0.019535065
19	0x3dbd366a	0.09238894
20	0xbd6453a2	-0.05574382
21	0x3c64be52	0.0139613915
22	0x3c7b095f	0.015322058
23	0xbc18e9f7	-0.009333125
24	0x3d5ca346	0.053866647
25	0xbcadc401	-0.021211626
26	0x3d72458b	0.059148353
27	0xbd4a5989	-0.049401794
28	0x3dc1a98d	0.09456167
29	0xbda9d714	-0.08292976
30	0xbae7f29e	-0.0017696207
31	0x3ceef3bf	0.029168962
32	0xbdb4ee5e	-0.088345274
33	0xbcc4353d	-0.023951167
34	0x3db44abe	0.088033184
35	0x3c98a1a4	0.018631764
36	0x3d979af5	0.074026026
37	0xbd8c97ee	-0.06864916
38	0x3d4e09fa	0.050302483
39	0x3c0ec170	0.008713111
40	0x3d126e3d	0.035749663
41	0xbd3486ae	-0.044073753
42	0x3c182e1e	0.009288339
43	0x3d377633	0.044790458
44	0x3d5adef0	0.053435266
45	0xbd3cd09f	-0.046097394
46	0xbd84181a	-0.064499095
47	0xbdc417cc	-0.095748514
48	0xbb686e07	-0.0035465972
49	0x3dc64c6e	0.096825466
50	0x3b78fec8	0.0037993658
51	0x3cc6d161	0.024269762
52	0xbd3307c9	-0.043708596
53	0x3d3153a6	0.043292664
54	0xbcdd3f37	-0.027007682
55	0xbd71aeeb	-0.059004705
56	0xbcf8c8b6	-0.030369144
57	0xbcc808d1	-0.024418266
58	0x3ce9c2f7	0.02853535
59	0x3bcec4cb	0.0063100806
60	0x3d8db84f	0.0691992
61	0x3d8072c0	0.06271887
62	0xbd808d6b	-0.06276973
63	0x3dabdf32	0.083921805
64	0x3d18ff01	0.037352566
65	0x3dad367a	0.08457656
66	0x3d043173	0.03227372
67	0x3d502611	0.050817553
68	0xbcabdfe8	-0.02098079
69	0xbd7a5a18	-0.061121076
70	0x3d88fa1c	0.066883296
71	0xbc46fd33	-0.012145328
72	0x3a614bb7	0.0008594351
73	0xbd8aeccb	-0.06783446
74	0xbd298f7d	-0.041396607
75	0x3da7637d	0.08173273
76	0xbd4b6d21	-0.04966462
77	0x3d33bf29	0.043883476
78	0x3d3b57bc	0.045737967
79	0x3d31dc27	0.043422844
80	0xbdaaf8dd	-0.08348248
81	0xbd1a14b8	-0.037617415
82	0xbd943ceb	-0.07238182
83	0x3d923b4b	0.071402155
84	0x3bab088b	0.0052195243
85	0x3da71072	0.081574336
86	0x3d5d1fbf	0.053985354
87	0x3d29aae0	0.041422725
88	0xbc27b3e5	-0.010235761
89	0x3d2dab96	0.042399965
90	0xbcaab328	-0.020837381
91	0x3d944267	0.07239228
92	0x3c57f84e	0.013181759
93	0x3d1b56fa	0.037924744
94	0x3d976a1b	0.07393285
95	0x3d8eda19	0.069751926
96	0xbd38f741	-0.045157675
97	0x3d033752	0.03203518
98	0xbc2ad72e	-0.010427279
99	0x3d78c42d	0.060733963
100	0x3cddbdf1	0.02706811
101	0xbddd84c2	-0.10816337
102	0x3cb569b6	0.022145133
103	0x3d97005e	0.07373117
104	0x3db871f3	0.09006109
105	0x3d656df1	0.05601305
106	0xbccfbc44	-0.025358327
107	0x3d1fb388	0.038989574
108	0xbd531b85	-0.051539917
109	0xbd9ced18	-0.076624095
110	0xbd6b5ac1	-0.057459597
111	0x3c142858	0.009042822
112	0xbdcf2285	-0.10114006
113	0xbd018224	-0.031618252
114	0x3dafccc0	0.08583975
115	0x3d95e56a	0.07319148
116	0xbd970136	-0.07373278
117	0xbd8cbe1b	-0.06872197
118	0x3d916245	0.070988216
119	0x3c929807	0.017894758
120	0xbcdffcfd	-0.027342314
121	0xbbb4fd6c	-0.0055233743
122	0x3d594df8	0.053052872
123	0x3d9a9053	0.07547059
124	0xbc9deef3	-0.019278979
125	0xbdb03fa9	-0.08605892
126	0xbd3887ff	-0.04505157
127	0xbd76e840	-0.060280085
128	0xbd580dcf	-0.052747544
129	0x3da36899	0.07978935
130	0xbd75df00	-0.060027122
131	0xbda1a810	-0.078933835
132	0x3d9684c9	0.073495455
133	0x3d7a14ec	0.06105511
134	0xbd9a6e1b	-0.07540532
135	0xbcb4fd4e	-0.022093441
136	0x3cf327db	0.02968209
137	0x3da54b05	0.080709495
138	0xbd04747c	-0.03233765
139	0x3d56110e	0.05226236
140	0xbd04af67	-0.03239384
141	0x3d918677	0.07105725
142	0x3cb90cb0	0.022589058
143	0x3da16ace	0.078816995
144	0xbd6f7aff	-0.058466908
145	0xbda8eee0	-0.08248687
146	0x3d27b26e	0.04094165
147	0xb70e5518	-8.483672e-06
148	0x3d94b9ee	0.07262026
149	0xbce27f08	-0.027648464
150	0xbc101866	-0.00879488
151	0x3dc2c79d	0.095107295
152	0xbcc2d2bd	-0.023782128
153	0xbd4e8d86	-0.050427936
154	0xb90c75f8	-0.00013395387
155	0xbce815d8	-0.028330728
156	0xbb1a509f	-0.002354659
157	0x3d9bd27f	0.07608508
158	0xbd4e908d	-0.050430823
159	0xbc737f43	-0.0148618845
160	0x3d4c0669	0.0498108
161	0x3c66bfc1	0.014083804
162	0x3d8a3da2	0.06750037
163	0x3d5a8d97	0.053357687
164	0x3d0a737f	0.033801552
165	0xbcb74a52	-0.022374306
166	0xbab244e5	-0.0013600854
167	0xbc2c0133	-0.010498333
168	0x3c9dc19e	0.019257363
169	0x3d334ab9	0.043772433
170	0xbda1fa3c	-0.079090565
171	0xbb279d69	-0.0025576001
172	0xbcb62064	-0.022232242
173	0xbdaf6173	-0.08563509
174	0x3cdebede	0.027190622
175	0xbd3b7979	-0.045770142
176	0x3dae2988	0.08504015
177	0xbda4b90c	-0.080431074
178	0x3c875c63	0.016523546
179	0xbd87344f	-0.06601774
180	0xbd5b73c0	-0.053577185
181	0xbd5bc838	-0.05365774
182	0xbd9aaf6a	-0.07552989
183	0x3c87dc46	0.016584527
184	0x3d915d3f	0.070978634
185	0xbcffd45f	-0.031229196
186	0xbd272ebb	-0.04081605
187	0xbd03b94a	-0.032159127
188	0xbd910e76	-0.07082836
189	0x3d8f445b	0.0699546
190	0xbd096c6b	-0.03355066
191	0xbd559f09	-0.05215362
192	0xbd2957cc	-0.041343495
193	0xbd05cf94	-0.032668665
194	0xbd94d197	-0.072665386
195	0x3d9af9c6	0.07567172
196	0xbd2321d3	-0.03982718
197	0x3d793c26	0.060848378
198	0xbdbe5c3c	-0.09294936
199	0x3d8aa621	0.06769968
200	0x3dcb62cd	0.09930954
201	0x3d1872c4	0.037218824
202	0x3d872f6a	0.066008404
203	0xbdb923e9	-0.090400524
204	0x3d544ba9	0.051829968
205	0xbd47921d	-0.04872333
206	0x3d8a6279	0.067570634
207	0xbc239136	-0.009983351
208	0xbc3cf76a	-0.0115335975
209	0xbc3141b2	-0.010818886
210	0xbcd20959	-0.025639223
211	0x3d10b4b9	0.0353286
212	0xbd8ee031	-0.06976355
213	0x3d60d2ae	0.05488842
214	0xbcfd5192	-0.030922685
215	0xbd4eac22	-0.050457127
216	0xbd59e9ec	-0.0532016
217	0x3d9afbd5	0.075675644
218	0x3ca1ac7e	0.019735571
219	0x3d14b3db	0.036304336
220	0xbd8e82e1	-0.06958557
221	0x3da88031	0.082275756
222	0xbc68a824	-0.014200244
223	0xbd2fec9b	-0.042950254
224	0xbd3daae0	-0.046305537
225	0x3d232266	0.039827727
226	0x3c89a245	0.016801009
227	0x3d9e6c8f	0.0773555
228	0xbda6fbf9	-0.08153529
229	0x3dc9abb4	0.09847203
230	0xbcddea8b	-0.027089378
231	0xbcb4e663	-0.022082513
232	0x3d5a34d8	0.053273052
233	0xbd16a479	-0.036777947
234	0xbd971854	-0.07377687
235	0xbc39f5d2	-0.011350112
236	0x3d8ae9f0	0.06782901
237	0x3c8c4f99	0.017127799
238	0xbbad31f3	-0.0052854954
239	0xbc53b95b	-0.01292261
240	0x3dbb2c1f	0.09139275
241	0x3ce31ff9	0.027725207
242	0x3d8e9c6e	0.0696343
243	0xbc1e2b54	-0.009653885
244	0xbc77a58c	-0.015115153
245	0xbd6a512a	-0.05720631
246	0xbbe089e6	-0.0068523763
247	0xbd939222	-0.07205607
248	0xbd9973a9	-0.074927635
249	0x3cb1bf9d	0.021697814
250	0xbc9ec50f	-0.019381074
251	0xbdb82fdd	-0.08993504
252	0x3d338de2	0.043836482
253	0x3d76b1f2	0.060228296
254	0xbcf5b2f5	-0.02999256
255	0xbd16dca9	-0.03683153

rnn.bias_ih_l0 f4 [128]
0	0x3c50be10	0.012740627
1	0xbd6a5b23	-0.05721582
2	0x3c827736	0.015925985
3	0xbcda0e43	-0.026618129
4	0x3c6c9139	0.014438921
5	0xbd80c25d	-0.06287072
6	0xbc94ab74	-0.018148161
7	0xbd60ae11	-0.054853503
8	0xbd804e38	-0.06264919
9	0xbd7a954e	-0.061177544
10	0x3ccc89fd	0.024968142
11	0xbd71850b	-0.05896477
12	0xbd5397f8	-0.0516586
13	0x3da862bf	0.08221959
14	0xbbd4696d	-0.0064822943
15	0xbc9875c6	-0.018610846
16	0xbd7ed470	-0.062214315
17	0x3d183a46	0.03716495
18	0x3d8d7f16	0.06909005
19	0xbd21acc1	-0.03947139
20	0x3bcaafeb	0.006185522
21	0xbda95c90	-0.08269608
22	0x3d9149d8	0.07094163
23	0x3c8df56b	0.017328938
24	0x3d64ca8e	0.055857234
25	0xbd0c7458	-0.03429064
26	0xbd99c47e	-0.07508181
27	0xbdb0bb60	-0.08629489
28	0xbd3d2fcc	-0.04618816
29	0x3d9d7e3c	0.07690093
30	0x3b6231f8	0.0034514647
31	0x3a23943e	0.00062400464
32	0x3d262888	0.040565997
33	0xbd8c9fa3	-0.06866386
34	0xbd9305b0	-0.07178819
35	0x3d633dd5	0.05547889
36	0x3d729111	0.059220377
37	0xbd3c7b56	-0.04601606
38	0xbcd46788	-0.025928274
39	0x3d4a84d0	0.049443066
40	0x3db57b54	0.088614136
41	0xbd7aef2d	-0.061263252
42	0xbd8ab5ef	-0.06772982
43	0x3d17c55c	0.03705345
44	0xbd4fc977	-0.05072924
45	0x3966a076	0.00021994286
46	0x3d550512	0.05200679
47	0x3c5c587b	0.01344883
48	0x3bcac52d	0.006188056
49	0xbd49805f	-0.04919469
50	0xbd33cfee	-0.04389947
51	0x3c925de1	0.01786703
52	0xbd2241fa	-0.0396137
53	0x3d603ec4	0.054747358
54	0xbd88f7ca	-0.06687887
55	0xbb562d4e	-0.0032680812
56	0x3d5a1bf2	0.053249307
57	0xbd2c10db	-0.042008262
58	0xbd91de3c	-0.07122466
59	0x3d809a6c	0.06279454
60	0xbcb73a3b	-0.022366634
61	0x3b32fbdb	0.0027310762
62	0xbd2dd9c0	-0.04244399
63	0xbc1f39c9	-0.009718367
64	0x3c923f93	0.01785258
65	0x3d7957b5	0.06087466
66	0x3bb2e091	0.0054588993
67	0xbc543393	-0.012951749
68	0xbd8a2f5f	-0.067473166
69	0xbccd72bd	-0.025079126
70	0xbd58141c	-0.052753553
71	0x3bf67ec1	0.0075224345
72	0x3bf979bb	0.0076133884
73	0xbc47fa47	-0.012205667
74	0xbda953dd	-0.08267949
75	0x3d8a2c3f	0.067467205
76	0x3d986e4c	0.074429125
77	0xbd9c85ad	-0.07642684
78	0x3d6b286b	0.057411592
79	0x3cd311e8	0.025765374
80	0xbd1963c8	-0.037448674
81	0xbd7687e3	-0.060188185
82	0xbdb06eac	-0.08614859
83	0xbc08c349	-0.008347341
84	0x3da0a130	0.07843244
85	0xbd2f4392	-0.04278905
86	0xbd1b989c	-0.037987337
87	0xbcf57ce6	-0.029966783
88	0x3d7b73c3	0.061389696
89	0xbd874b37	-0.06606143
90	0xbbf9452f	-0.0076071243
91	0x3c0f52ed	0.008747798
92	0x3c7d12cc	0.015446376
93	0xbd8ca7f4	-0.06867972
94	0x3d6bdb10	0.05758196
95	0x3d46c51d	0.048527826
96	0xbd959423	-0.073036455
97	0x3d74342a	0.05962006
98	0xbd1901f2	-0.03735537
99	0xbc948ec1	-0.018134477
100	0xbd218c5b	-0.039440494
101	0x3d8d4911	0.06898702
102	0xbd25857a	-0.040410496
103	0x3d827ddf	0.06371664
104	0xbcbdce13	-0.023169553
105	0xbc7e279b	-0.015512372
106	0x3d3eb6dc	0.046561107
107	0xbc5867cb	-0.01320834
108	0x3be621b4	0.0070230607
109	0x3d18025e	0.037111633
110	0x3d94017c	0.072268456
111	0x3db25f89	0.08709628
112	0x3d746a76	0.05967184
113	0x3bfa0fdf	0.0076312865
114	0xbd4f7cd1	-0.050656144
115	0xbd564fc9	-0.052322183
116	0x3d76e63f	0.060278174
117	0xbda91647	-0.08256202
118	0x3cb869f2	0.022511456
119	0x3d57afde	0.052657954
120	0xbd8b646e	-0.06806265
121	0xbd7827eb	-0.060584944
122	0xbb2f02a8	-0.0026704464
123	0x3d8cc649	0.068737574
124	0x3d0953df	0.03352725
125	0xbca719c8	-0.020398036
126	0x3d974b4d	0.07387409
127	0xbd3ea4b2	-0.046543784

rnn.bias_hh_l0 f4 [128]
0	0x3c31311a	0.010814929
1	0x3dbddb11	0.09270299
2	0xbdb61e08	-0.08892447
3	0xbd06e6f8	-0.032935113
4	0x3b7aa84c	0.0038247285
5	0x3daf2dda	0.08553667
6	0xbd86b46f	-0.06577384
7	0x3c859545	0.016306529
8	0xbd868b94	-0.06569591
9	0x3d3d717f	0.046250816
10	0xbc1a80fb	-0.009430165
11	0x3d92f3ac	0.07175383
12	0x3d2ed3a0	0.04268229
13	0x3bb83a89	0.0056222123
14	0xbd69c8b3	-0.057076167
15	0x3d1508df	0.036385413
16	0xbd801b94	-0.0625526
17	0xbda8508e	-0.082184896
18	0xbd801c9d	-0.062554576
19	0x3d933850	0.07188475
20	0x3d671e56	0.056425415
21	0xbb9823d4	-0.004642943
22	0xbd59c1a3	-0.053163182
23	0xbc1849d4	-0.009294946
24	0xbd3cde52	-0.04611046
25	0xbd0ea0a9	-0.034821186
26	0xbb5dad4b	-0.0033825214
27	0x3d254d49	0.040356908
28	0xbd5f7b7e	-0.05456113
29	0xbce490ed	-0.027901137
30	0x3db9afb0	0.09066713
31	0x3c404d92	0.011737244
32	0x3d4d02df	0.050051566
33	0x3d625768	0.05525914
34	0x3d17114b	0.036881726
35	0xbda8b31e	-0.08237289
36	0xbc038dc1	-0.008029402
37	0xbd2b7488	-0.04185918
38	0xbcd5f26e	-0.026116576
39	0x3d2050c2	0.039139517
40	0xbd5247e9	-0.05133811
41	0x3d36bb34	0.044612125
42	0xbd3b5d1c	-0.045743093
43	0x3d488e36	0.048963748
44	0xbd844f3b	-0.064604245
45	0xbd6f2804	-0.05838777
46	0xbd583a3b	-0.052789908
47	0x3da3b53b	0.07993551
48	0x3c065228	0.0081982985
49	0xbd17a9e0	-0.03702724
50	0x3caa0ffd	0.020759577
51	0xbd32f520	-0.0436908
52	0xbc8539a2	-0.016262833
53	0xbd671ccc	-0.056423947
54	0xbd926b5c	-0.071493834
55	0x3ae32d2c	0.0017332188
56	0xbd7bbf44	-0.061461702
57	0x3c004ebf	0.0078312745
58	0xbd53d321	-0.05171502
59	0xbd1f78f4	-0.03893371
60	0xbd70d962	-0.058801062
61	0x3d9ee8a8	0.077592194
62	0xbcc5a51b	-0.02412658
63	0xbc951ed0	-0.01820317
64	0x3cc9972d	0.024608219
65	0x3cad38e0	0.021145284
66	0xbd6d1274	-0.057878926
67	0xbd61151a	-0.054951765
68	0x3d35da72	0.04439778
69	0x3d16d202	0.036821373
70	0x3bb2e5ad	0.0054595084
71	0x3ca4e886	0.020130407
72	0x3cdbe1f9	0.02684115
73	0x3cb7c10d	0.022430921
74	0xbbf63681	-0.0075138216
75	0xbc2b263f	-0.01044613
76	0xbd1876c9	-0.037222657
77	0x3d75ebdc	0.060039386
78	0xbd8823f8	-0.066474855
79	0xbd932969	-0.07185633
80	0xbd0f2e41	-0.03495622
81	0xbd9c19e6	-0.07622127
82	0x3d0c2317	0.03421315
83	0xbc9e1bdd	-0.019300396
84	0xbd17c403	-0.037052166
85	0x3b598654	0.0033191638
86	0x3d87fc61	0.06639934
87	0x3d218639	0.039434645
88	0x3c02e38d	0.007988823
89	0xbce05bc0	-0.0273875
90	0x3c3430ec	0.010997992
91	0xbd6c94fb	-0.057759266
92	0xbc9b248a	-0.018938322
93	0x3d890f54	0.06692377
94	0xbd9f9608	-0.07792288
95	0x3da32050	0.079651475
96	0x3d8cf0c6	0.068818614
97	0x3d4e6cd8	0.05039677
98	0xbcc20322	-0.023683134
99	0x3cd2bf39	0.025725948
100	0x3d76b3d2	0.060230084
101	0xbd9e39c7	-0.07725864
102	0x3bfa1bf1	0.0076327254
103	0xbd361c4a	-0.044460572
104	0xbd8ab736	-0.06773226
105	0xbc803795	-0.015651504
106	0x3d3eab0f	0.046549853
107	0x3d8be15a	0.06830092
108	0x3bc196f5	0.005907888
109	0x3c0c77a9	0.008573451
110	0x3d093f6c	0.03350775
111	0xbd631f37	-0.05544969
112	0x3d9611ba	0.073276
113	0x3d22c360	0.039737105
114	0xbd6b153c	-0.057393298
115	0x3c880933	0.016605949
116	0x3d89c435	0.06726877
117	0xbd80ac7d	-0.062828995
118	0xbb50f269	-0.003188277
119	0xbdb229d2	-0.08699383
120	0xbb70d0a4	-0.0036745453
121	0xbd692c22	-0.056926854
122	0x3c694daf	0.014239713
123	0xbd1db356	-0.038501106
124	0xbc9a6a15	-0.018849412
125	0x3d722715	0.059119303
126	0xbd8d96dd	-0.069135405
127	0x3c523a3d	0.012831268

rnn.weight_ih_l1 f4 [128, 128]
0	0xbdac1c48	-0.08403832
1	0xbccee988	-0.02525784
2	0x3d2ebb29	0.04265896
3	0x3bc74ff2	0.0060825283
4	0xbd1293b7	-0.035785403
5	0x3b6ac830	0.0035824887
6	0xbd161871	-0.036644403
7	0x3d075c0d	0.03304677
8	0xbd870ed9	-0.06594629
9	0xbd99fe0c	-0.07519159
10	0xbc7bf335	-0.015377809
11	0xbcd1b829	-0.02560051
12	0x3d50c77f	0.050971504
13	0x3e0d7d73	0.13817386
14	0x3d7636a3	0.0601107
15	0xbd84f14d	-0.06491337
16	0x3d390646	0.045172
17	0xbd978954	-0.0739924
18	0x3ccc603b	0.02494823
19	0x3d117e60	0.03552091
20	0x3db3a74a	0.08772142
21	0xbd19facc	-0.037592694
22	0x3c4423aa	0.011971394
23	0x3dc2bc7a	0.09508605
24	0xbcdafd06	-0.02673198
25	0xbd60ef1c	-0.054915532
26	0xbd075858	-0.033043236
27	0xbd654140	-0.05597043
28	0xbd734fae	-0.05940216
29	0xbc7426c5	-0.0149018215
30	0xbc77a12e	-0.015114112
31	0x3c4b1f60	0.012397617
32	0x3dc68488	0.09693247
33	0x3c0a1008	0.008426674
34	0xbd529b6a	-0.051417746
35	0xbc95a3af	-0.018266527
36	0xbca97b34	-0.02068863
37	0xbd5ef0ec	-0.05442898
38	0x3d055166	0.03254833
39	0x3d37d68d	0.044882346
40	0x3d8679a2	0.06566168
41	0xbc4c937e	-0.012486337
42	0xbcf0ec53	-0.029409563
43	0x3da833c4	0.082129985
44	0x3d82de77	0.06390088
45	0xbd0c1047	-0.03419521
46	0x3d4b24f2	0.04959578
47	0xbd8c1dbe	-0.0684161
48	0xbdc63d1f	-0.09679627
49	0xbd5a0798	-0.0532299
50	0xbd38637d	-0.045016754
51	0xbd97bf76	-0.07409565
52	0x3be6819e	0.0070344945
53	0x3d23ce26	0.03999152
54	0xbdf51871	-0.119675525
55	0xbd542f0c	-0.05180268
56	0x3c806af5	0.015676001
57	0x3d42c8ae	0.047554664
58	0x3d6a6031	0.05722064
59	0x3bf607b4	0.0075082425
60	0xbb7fa1f2	-0.003900644
61	0x3ca16df6	0.019705754
62	0xbc54a7a5	-0.012979423
63	0x3d853eb6	0.06506102
64	0xbda40fda	-0.08010836
65	0xbdaa311c	-0.08310148
66	0x3b888edc	0.004167421
67	0x3d507bf6	0.05089947
68	0x3d4040e2	0.046936877
69	0xbd598fd7	-0.053115692
70	0x3d2131d6	0.039354168
71	0xbc127584	-0.008939151
72	0x3d0faf67	0.035079386
73	0x3d8e0bb2	0.069358245
74	0xbd7d2517	-0.06180295
75	0x3d54b8af	0.05193394
76	0x3d51bee6	0.051207446
77	0xbc703731	-0.014661596
78	0xbc1ae420	-0.009453803
79	0x3c14ff45	0.009094064
80	0x3cf2f576	0.02965806
81	0xbd20fd8f	-0.039304312
82	0xbda76a9c	-0.08174631
83	0x3d8541b8	0.065066755
84	0x3d952e39	0.07284207
85	0xbc3202ff	-0.010864972
86	0x3d974943	0.073870204
87	0x3d855297	0.065098934
88	0x3c01d903	0.007925275
89	0xbd18b1fa	-0.037279107
90	0xbd81adfa	-0.063320115
91	0x3dd1878c	0.10230932
92	0x3ce81417	0.028329892
93	0xbd47d7b2	-0.048789687
94	0xbdc834e5	-0.09775714
95	0x3c59e54c	0.013299298
96	0xbd502775	-0.05081888
97	0xbd63b1e8	-0.055589586
98	0x3d0a4efe	0.03376674
99	0x3da87c19	0.08226795
100	0xbcb223f3	-0.021745658
101	0x3d313cf0	0.043271005
102	0xbdbf1cba	-0.09331651
103	0xbd2a9346	-0.041644357
104	0xbd1ed315	-0.038775522
105	0xbdc30430	-0.09522283
106	0xbb737f72	-0.003715482
107	0x3d9ed616	0.077556774
108	0xbdcc7da4	-0.099849015
109	0xbc9ed77b	-0.019389858
110	0xbd3d7c9b	-0.04626141
111	0x3d9058b1	0.070481665
112	0x3d7d117e	0.06178426
113	0x3c293294	0.010327
114	0xbda176b8	-0.07883972
115	0xbd35f56f	-0.044423517
116	0xbd9b0253	-0.07568803
117	0x3d88f059	0.06686468
118	0xbce1facf	-0.027585415
119	0xbc1add9a	-0.009452248
120	0xbd23415e	-0.03985726
121	0x3d3d7a70	0.046259344
122	0x3da9f898	0.082993686
123	0xbdc70490	-0.09717667
124	0xbceec8f7	-0.029148562
125	0xbcc7c6ba	-0.024386752
126	0xbd904218	-0.070438564
127	0x3ce7160f	0.02820876
128	0x3d57d854	0.05269654
129	0xbcac4951	-0.021031054
130	0xbdc6ef39	-0.09713597
131	0xbd801bc2	-0.062552944
132	0x3d17b112	0.0370341
133	0x3c33b0b2	0.01096742
134	0x3d43daf9	0.04781625
135	0x3d5fbf98	0.054626077
136	0xbda03860	-0.07823253
137	0x3d8879ba	0.066638425
138	0xbd3fd1e8	-0.04683104
139	0x3d2f8a7c	0.04285668
140	0xbd921c27	-0.07134276
141	0x3d7ff56b	0.06248991
142	0xbd00ece5	-0.03147592
143	0x3d086ab6	0.033304892
144	0x3caf9026	0.02143104
145	0xbdaf95a6	-0.08573465
146	0x3cac7a3f	0.021054385
147	0x3d82144e	0.06351529
148	0xbd59c634	-0.053167537
149	0x3cb737f0	0.02236554
150	0x3d020e6d	0.03175204
151	0x3dad8036	0.0847172
152	0x3ce6e277	0.028184159
153	0xbc3be547	-0.011468238
154	0x3d8bd1a8	0.06827098
155	0xbb925ec5	-0.004466864
156	0x3d1c2beb	0.03812782
157	0x3cf79c6b	0.030225953
158	0x3d51217d	0.051057328
159	0xbda52332	-0.080633536
160	0xbd3d3c89	-0.04620031
161	0xbd7317fd	-0.05934905
162	0xbd8ee7a6	-0.06977777
163	0x3dc76405	0.09735874
164	0x3dca668c	0.098828405
165	0x3d85a251	0.065251
166	0xbd8bacb2	-0.068200484
167	0x3b931fa4	0.004489856
168	0xbc28025c	-0.010254469
169	0xbd8c9e28	-0.068661034
170	0x3d44de1c	0.048063383
171	0x3d437c65	0.047726054
172	0xbd2f67ba	-0.04282353
173	0xbd8cceeb	-0.06875404
174	0x3dc38339	0.09546513
175	0xbd68d6d5	-0.056845505
176	0x39c86f73	0.0003823001
177	0x3c0b458d	0.008500469
178	0x3d7b1780	0.06130171
179	0x3dbc63d9	0.09198732
180	0xbdd19234	-0.10232964
181	0x3c3b976a	0.011449674
182	0xba297486	-0.0006464202
183	0x3c829900	0.015942097
184	0x3d8d9692	0.06913485
185	0x3be41ece	0.00696168
186	0xbcb7e32b	-0.02244719
187	0xbd9b965c	-0.07597038
188	0xbd8cd64e	-0.06876813
189	0x3d9b9c7a	0.07598205
190	0xbdc8837b	-0.09790703
191	0x3abb5e13	0.0014295004
192	0x3d60bdb7	0.054868426
193	0xbc4b0236	-0.012390664
194	0x3d02ae55	0.031904537
195	0xbcf0f06b	-0.029411515
196	0xbd686984	-0.056741253
197	0x3c22b4ea	0.009930829
198	0x3cb1ab48	0.021688119
199	0xbd7543bb	-0.059879046
200	0xbd6297b9	-0.055320475
201	0x3d586a15	0.052835543
202	0x3d8c13f3	0.068397425
203	0xbdb2d20b	-0.08731469
204	0x3dabfd59	0.083979316
205	0xbc9eca06	-0.019383442
206	0xbbdab0f5	-0.006673927
207	0x3d1f0df1	0.038831655
208	0x3c2d0208	0.010559566
209	0x3d35e2a9	0.044405613
210	0xbb5d1a57	-0.0033737624
211	0x3ce3fa06	0.027829181
212	0xbd8d7b33	-0.06908264
213	0xbceaca25	-0.028660843
214	0x3c855f9a	0.016280938
215	0xbd413d3f	-0.04717755
216	0xbd12e9bf	-0.03586745
217	0x3b51ac35	0.0031993513
218	0x3dbc8585	0.09205154
219	0x3d2ea130	0.04263419
220	0x3cc3b435	0.02388964
221	0x3da6e414	0.08148971
222	0xbd56c42f	-0.05243319
223	0xbb806657	-0.00391845
224	0xbb093cc9	-0.0020940772
225	0xbd10283d	-0.035194624
226	0x3cf5910a	0.029976387
227	0x3d88ab6f	0.06673323
228	0x3d3146d1	0.043280426
229	0x3dcfdeb2	0.10149898
230	0xbd015bec	-0.031581804
231	0xbca48f43	-0.020087844
232	0xbc3563e3	-0.011071178
233	0x3a68b159	0.00088765245
234	0x3c8746f1	0.01651332
235	0xbd28b8c3	-0.041191828
236	0x3d71180b	0.05886082
237	0x3d24ed65	0.04026546
238	0xbd9adf35	-0.075621046
239	0x3d17a96f	0.03702682
240	0x3d5442cb	0.05182151
241	0xbc1adbd6	-0.009451827
242	0x3d6985a0	0.0570122
243	0x3d76fe87	0.06030133
244	0x3cee4d76	0.02908967
245	0x3d363ccf	0.044491585
246	0xbc929e18	-0.01789765
247	0x3d16fa54	0.036859825
248	0xbd2c6596	-0.042089067
249	0xbc25a7be	-0.010110794
250	0xbbd5f9c6	-0.0065300195
251	0xbd39f4d5	-0.045399506
252	0xbd82b126	-0.06381445
253	0xbc4d8a19	-0.012545132
254	0xbc795bba	-0.015219623
255	0xbd61acdd	-0.055096496

rnn.weight_hh_l1 f4 [128, 128]
0	0xbbc38eab	-0.005967935
1	0x3da2a9d4	0.079425484
2	0x3d8487d8	0.06471223
3	0x3cd46817	0.02592854
4	0xbd121dd1	-0.035672966
5	0x3d72f66a	0.05931703
6	0xbd686bf4	-0.056743577
7	0xbcaed7ac	-0.021343075
8	0x3d757e10	0.059934676
9	0x3b12e662	0.002241515
10	0x3c2ae3cb	0.010430287
11	0x3d4f8d6f	0.05067199
12	0xbd3d59b1	-0.046228115
13	0x3da8b7e3	0.082381986
14	0xbda98ef1	-0.08279217
15	0xbd0b89e8	-0.034067065
16	0x3d9ec9dd	0.07753346
17	0xbd0f8535	-0.035039145
18	0xbd9aa496	-0.075509235
19	0xbcfa87e5	-0.030582378
20	0x3c1df311	0.009640471
21	0xbd4a7e47	-0.049436834
22	0xbc812980	-0.015766859
23	0x3b714ba9	0.0036818779
24	0x3cfe7a87	0.031064285
25	0xba2c1666	-0.0006564617
26	0x3d2dfd29	0.04247776
27	0x3d9063ce	0.07050286
28	0x3d44179c	0.04787408
29	0x3c03fc0f	0.008055701
30	0xbdaf5cc9	-0.08562619
31	0xbd00be7c	-0.03143166
32	0xbced1b5f	-0.028943716
33	0xbd6d2e93	-0.057905745
34	0x3d2d5572	0.042317815
35	0xbd9a7592	-0.07541956
36	0xbdacbcd9	-0.08434457
37	0x3d1431a0	0.03618014
38	0x3d7633fe	0.060108177
39	0x3c92ca26	0.017918658
40	0xbd87697c	-0.066119164
41	0xbd98aee7	-0.07455235
42	0x3d060e85	0.03272869
43	0x3d15b535	0.036549766
44	0xbbf23962	-0.0073920945
45	0xbca553fb	-0.020181647
46	0xbc8ef19b	-0.01744919
47	0xbcc40206	-0.023926746
48	0xbced19fb	-0.028943053
49	0x3cc60560	0.024172485
50	0x3cf9c180	0.030487776
51	0xbb2905a4	-0.0025790716
52	0xbda15394	-0.078772694
53	0xbd64661e	-0.05576145
54	0x3d3385ed	0.043828893
55	0x3d7eedd6	0.062238537
56	0x3d680a41	0.056650404
57	0x3d484803	0.0488968
58	0xbd2309cb	-0.03980426
59	0x3d88467c	0.06654069
60	0xbd860507	-0.06543928
61	0x3d850def	0.06496798
62	0x3ba4c7b6	0.00502869
63	0xbb6bb2e2	-0.0035964777
64	0x3d211179	0.039323304
65	0x3da2cf2b	0.079496704
66	0x3d6f9544	0.05849196
67	0xbd17c38c	-0.037051722
68	0x3d5dec6c	0.054180548
69	0xbd6d8a7a	-0.05799339
70	0xbbf861f8	-0.007580038
71	0x3ccd9767	0.025096608
72	0xbc687113	-0.014187115
73	0x3bec2c90	0.0072074607
74	0xbcc1e8aa	-0.023670513
75	0xbd2c072f	-0.04199904
76	0x3b93c57b	0.0045096255
77	0x3d8a9713	0.06767096
78	0x3ca95605	0.0206709
79	0xbce901c9	-0.028443234
80	0xbd543e64	-0.051817313
81	0xbd5daf56	-0.05412229
82	0xbd359af0	-0.044337213
83	0x3d1ca093	0.038239073
84	0x3dbad0ef	0.09121882
85	0x3da6a1dc	0.08136341
86	0x3d6d1009	0.05787662
87	0xbd71ef1f	-0.059065934
88	0xbd9ecca0	-0.07753873
89	0xbd0abaf4	-0.0338697
90	0x3da662b0	0.08124292
91	0xbc707439	-0.014676147
92	0xbc679c2c	-0.014136355
93	0xbd47fda9	-0.048825894
94	0x3da16abd	0.07881687
95	0x3b9081c4	0.0044100005
96	0x3d195bed	0.037441183
97	0x3ce6d7c6	0.02817906
98	0x3d8d8963	0.0691097
99	0xbc5f0600	-0.01361227
100	0x3d2482f6	0.040163957
101	0xbd1983d4	-0.037479237
102	0xbc8617b7	-0.01636873
103	0xbd8dc9ed	-0.0692328
104	0xbcff5c66	-0.031171989
105	0x3d82914b	0.06375369
106	0xbc6202f2	-0.0137946475
107	0xbd64e627	-0.055883553
108	0x3ce2ad86	0.027670633
109	0xbce9701c	-0.02849584
110	0x3dae9eed	0.085264064
111	0xbda859a9	-0.08220226
112	0xbd273bb6	-0.04082843
113	0xbdb2d05d	-0.087311484
114	0xbc303136	-0.01075392
115	0x3d86ebd8	0.065879524
116	0xbd2b70fe	-0.041855805
117	0x3ac524fc	0.001504093
118	0x3c4a77ca	0.0123576615
119	0x3dab0941	0.083513744
120	0xbcc0c925	-0.023533413
121	0xbc66e72b	-0.014093201
122	0x3db0c97e	0.086321816
123	0xbd95ba90	-0.073109746
124	0x3d89f681	0.0673647
125	0xbcf370b9	-0.029716836
126	0x3cb70655	0.022341887
127	0x3db2baca	0.087270334
128	0xbcacfa94	-0.021115579
129	0xbb9b3ea8	-0.004737694
130	0xbd282dd7	-0.04105934
131	0x3d519375	0.051166017
132	0x3d8b4a6e	0.06801306
133	0x3c033aee	0.008009655
134	0x3cb18820	0.021671355
135	0x3c95cde2	0.01828665
136	0xbd633825	-0.055473465
137	0xbdb2c987	-0.087298445
138	0xbdaf5376	-0.08560841
139	0xbd77173b	-0.06032489
140	0xbd301d57	-0.04299673
141	0xbd491cb1	-0.049099628
142	0x3d711fcb	0.05886821
143	0xbc91fc59	-0.017820524
144	0x3d78c2c4	0.060732618
145	0xbd8e53b5	-0.069495596
146	0x3dadd8ed	0.08488641
147	0x3d821e02	0.0635338
148	0x3d5b1b7e	0.053493015
149	0x3ce8a51d	0.028399045
150	0xbb81499d	-0.003945543
151	0x3cf872fe	0.03032827
152	0xbd29355e	-0.04131066
153	0xbcea77c7	-0.028621567
154	0x3d9db0bd	0.07699726
155	0xbcac05e8	-0.02099891
156	0x3b1c646f	0.0023863574
157	0x3d10c017	0.03533944
158	0xbd316eb3	-0.04331846
159	0x3b9f54cf	0.004862405
160	0xba4d13cc	-0.00078230794
161	0x3d96b6f3	0.073591135
162	0x3d7dc1b8	0.061952323
163	0xbd356dc2	-0.044294126
164	0x3c20f2a6	0.009823477
165	0x3d711009	0.058853183
166	0xbda30973	-0.07960787
167	0xbcfcf4a8	-0.03087838
168	0x3da0590e	0.07829486
169	0xbd0c7634	-0.034292415
170	0x3d235055	0.039871532
171	0x3cfc1ab7	0.030774457
172	0x3d7dec07	0.06199267
173	0x3cd601b4	0.026123859
174	0xbda8e086	-0.082459494
175	0xbd461eba	-0.048369147
176	0xbd65b1c7	-0.056077745
177	0x3d8567ea	0.06513961
178	0xbc82996b	-0.015942296
179	0xbd7fb958	-0.062432617
180	0x3d395ef1	0.04525656
181	0xbd8c3ef9	-0.068479486
182	0x3dac9244	0.084263355
183	0xbc12242e	-0.008919759
184	0x3d2282f0	0.039675653
185	0x3da7be92	0.08190645
186	0x3db0fbaf	0.08641755
187	0x3c9e6f76	0.019340258
188	0xbd8b91ed	-0.068149425
189	0xbd26d27c	-0.040728077
190	0x3c4b5086	0.012409335
191	0x3dafe1a0	0.085879564
192	0xbae19b94	-0.0017212504
193	0x3d5abad9	0.053400848
194	0xbd82446a	-0.06360705
195	0xbd63e1ff	-0.05563545
196	0x3d9dd4e2	0.0770662
197	0xbbd193e9	-0.006395806
198	0x3d7506f1	0.059821073
199	0xbd71c3c6	-0.059024595
200	0xbd77ea3f	-0.06052613
201	0xbb89de36	-0.004207398
202	0xbcb38ad1	-0.021916779
203	0xbda1e62b	-0.07905229
204	0xbd3de2b3	-0.046358775
205	0x3d4e8b86	0.05042603
206	0x3d545f69	0.051848803
207	0x3d8db71b	0.0691969
208	0x3c7e189f	0.0155088
209	0x3c4fde05	0.012687211
210	0x3ce57cd6	0.028013628
211	0x3c91df34	0.017806627
212	0x3d83bcf5	0.06432525
213	0x3db66318	0.089056194
214	0xbd8c42a8	-0.06848651
215	0x3bb5e75e	0.0055512628
216	0x3d5ba8bb	0.05362771
217	0xbca877de	-0.02056497
218	0xbc88abef	-0.016683547
219	0xbd1c2d01	-0.038128857
220	0xbca8d13a	-0.02060758
221	0x3c3faf50	0.011699513
222	0xbd9be8b5	-0.07612745
223	0x3c53442c	0.012894671
224	0x3da24d76	0.07924931
225	0xbc7205c7	-0.014771885
226	0xbd7a8bfe	-0.061168663
227	0xbda53874	-0.08067408
228	0xbdaf5488	-0.08561045
229	0xbd85fd98	-0.0654251
230	0x3d3477d7	0.0440596
231	0xbd8adf7b	-0.06780907
232	0x3d382883	0.04496051
233	0x3d2421f3	0.04007144
234	0xbd2eb73c	-0.042655215
235	0x3c9fa37e	0.019487139
236	0xbd3115b1	-0.043233577
237	0xbd21e419	-0.03952417
238	0xbdb2ee7a	-0.08736892
239	0xbcfeb18b	-0.031090518
240	0xbd517fa5	-0.051147122
241	0xbd065876	-0.032799207
242	0xbd1c9c6e	-0.03823512
243	0xbd60c82f	-0.05487841
244	0xbcaf896a	-0.021427829
245	0xbcdf0e21	-0.027228417
246	0x3d59a2d4	0.0531338
247	0x3b5df711	0.0033869187
248	0x3d441449	0.047870908
249	0x3b00accd	0.0019634247
250	0x3d93262e	0.071850166
251	0x3bd27380	0.00642246
252	0xbd059078	-0.03260848
253	0xbd3078e1	-0.04308403
254	0xbd2608e8	-0.040535837
255	0xbb378c76	-0.0028007305

rnn.bias_ih_l1 f4 [128]
0	0x3d6bf4bd	0.057606447
1	0x3d45f0df	0.048325416
2	0xb896e7cb	-7.195732e-05
3	0x3d6756e8	0.056479365
4	0xbd2ba2eb	-0.041903418
5	0xbd6328cf	-0.05545884
6	0xbce4d9d1	-0.027935894
7	0x3d9567d6	0.07295196
8	0xbd837e54	-0.064205796
9	0x3b9f70ce	0.0048657423
10	0xbda2a041	-0.07940722
11	0x3cc2da2f	0.023785679
12	0x3c8f6c4c	0.017507695
13	0xbd62258b	-0.055211585
14	0x3d1a198c	0.03762202
15	0x3d8bf0af	0.06833016
16	0x3ced6970	0.02898094
17	0xbcc56acc	-0.024098776
18	0xbd98e8c9	-0.07466275
19	0x3bb2ff36	0.0054625524
20	0xbd43484a	-0.047676362
21	0x3d5a760a	0.053335227
22	0xbd317975	-0.04332872
23	0x3d948ad9	0.072530456
24	0x3d33fa5f	0.043939944
25	0xbd52d3b6	-0.051471435
26	0xbd312409	-0.043247256
27	0x3cc26f11	0.023734601
28	0x3d466265	0.04843368
29	0x3da13f98	0.07873458
30	0x3bd6f394	0.0065597985
31	0x3d1e6017	0.038665857
32	0x3d028832	0.031868167
33	0xbd84ba0a	-0.06480797
34	0xbc361e0f	-0.011115565
35	0x3d219098	0.039444536
36	0xbc845232	-0.016152475
37	0xbd9b65ae	-0.07587753
38	0x3c126021	0.008934052
39	0xbdabd7ca	-0.08390768
40	0xba0b71ac	-0.00053193676
41	0x3c931965	0.017956445
42	0xbd632de0	-0.05546367
43	0x3d5e13d4	0.05421813
44	0x3c94ae22	0.01814944
45	0x3d7fae71	0.06242222
46	0xbd84066b	-0.06446537
47	0x3bf73add	0.007544859
48	0x3d1f740d	0.038929034
49	0xbd86529d	-0.06558726
50	0xbaa8f695	-0.001289087
51	0xbd5b6645	-0.05356433
52	0x3da8f494	0.082497746
53	0x3d7e0ae4	0.062022105
54	0xbc4f11fc	-0.012638565
55	0xbd900ad2	-0.07033314
56	0xbc7c72fa	-0.015408272
57	0x3bb7553f	0.005594879
58	0x3b0a5815	0.002110963
59	0xbd6c7598	-0.057729334
60	0xbda6bdb2	-0.0814165
61	0xbd3fd05f	-0.046829578
62	0xbbfaf46e	-0.007658533
63	0x3d98ddb4	0.074641615
64	0xbcbf1d62	-0.02332944
65	0x3cb1cb1f	0.021703301
66	0xbd9cafac	-0.07650694
67	0x3c253f52	0.0100858975
68	0xbd82cdeb	-0.06386932
69	0xbcbd17a2	-0.023082558
70	0x3daf245c	0.08551857
71	0x3d251408	0.040302306
72	0x3d9e1ade	0.07719968
73	0x3d23e4bc	0.04001306
74	0x3bb97494	0.005659649
75	0xbc4875d4	-0.012235124
76	0xbd008abc	-0.031382307
77	0x3dacc041	0.08435107
78	0xbcc046c6	-0.023471247
79	0xbd6a959e	-0.057271592
80	0xbda8939d	-0.0823128
81	0xbd0106d6	-0.03150066
82	0xbc8f7311	-0.017510923
83	0xbd550b92	-0.052012987
84	0x3c9b39d6	0.018948477
85	0x3d627911	0.05529124
86	0x3c33a817	0.010965369
87	0xbcfa3c1a	-0.030546237
88	0x3d1db9e8	0.038507372
89	0x3ceac945	0.028660426
90	0x3d330dee	0.043714456
91	0xbd8b8ccc	-0.06813964
92	0x3da4d832	0.080490485
93	0xbd1c098e	-0.03809505
94	0x3b20f55c	0.0024560308
95	0x3d6e6257	0.058199253
96	0xbd679d15	-0.05654629
97	0xbd98ef5d	-0.0746753
98	0xbcd1dd52	-0.025618229
99	0xbd1dd3ad	-0.038531948
100	0xbd7d5b0b	-0.061854403
101	0xbcb28488	-0.021791711
102	0xbd9be66d	-0.076123096
103	0x3da12102	0.07867624
104	0x3bec9db6	0.007220949
105	0xbd9a7111	-0.07541097
106	0xbd87c5ff	-0.06629562
107	0x3d0fbc0c	0.035091445
108	0xbd754b0c	-0.059886023
109	0x3ce5936a	0.028024394
110	0xbd7b0759	-0.061286304
111	0x3c948d85	0.018133888
112	0x3d0c63d7	0.034274902
113	0xbd5cb6ea	-0.053885378
114	0x3db8d5dc	0.090251654
115	0x3d5ba240	0.05362153
116	0xbc298153	-0.010345775
117	0x3d58eb49	0.05295876
118	0x3d46bd5b	0.048520427
119	0xbd820acd	-0.06349716
120	0x3cccb239	0.024987327
121	0x3d697108	0.05699256
122	0xbd6bc0af	-0.057556804
123	0x3cac2188	0.021012083
124	0x3d5386f2	0.051642366
125	0x3d4b350e	0.049611144
126	0x3d345ccd	0.044033814
127	0x3cff7075	0.031181553

rnn.bias_hh_l1 f4 [128]
0	0x3d6cd658	0.0578216
1	0xbce7b0e3	-0.028282588
2	0x3c26e558	0.010186516
3	0xbbfa174a	-0.007632171
4	0x3da328cf	0.07966768
5	0x3d28baa8	0.041193634
6	0xbb24d2f6	-0.0025150157
7	0x3c43295c	0.011911716
8	0xbbc35726	-0.0059613166
9	0x3d0772ae	0.03306835
10	0xbd65d755	-0.05611356
11	0x3ca225b2	0.019793365
12	0xbd451bb6	-0.04812213
13	0xbd477587	-0.048696067
14	0x3c1fe539	0.009759241
15	0x3cc9a426	0.024614405
16	0xbd0921fd	-0.03347968
17	0x3d1b6a9e	0.037943475
18	0x3cbee333	0.023301696
19	0x3daf04c0	0.08545828
20	0xbd36a716	-0.04459294
21	0xbd0114c3	-0.03151394
22	0xbc95a1fb	-0.018265715
23	0xbd150b37	-0.03638765
24	0xbd539721	-0.0516578
25	0x3d9dba1a	0.07701512
26	0xbd2dcd68	-0.04243222
27	0xba359a7e	-0.0006927623
28	0xbd290db1	-0.041272823
29	0xbc8c1c1a	-0.017103244
30	0x3cfefe3d	0.03112709
31	0x3d6ae7e7	0.057350066
32	0xbcdc1784	-0.026866682
33	0xbd358565	-0.044316668
34	0xbda0ad89	-0.07845599
35	0xbcc89d11	-0.024488958
36	0xbcd2f690	-0.025752336
37	0x3d5f72ba	0.05455277
38	0x3cae6f89	0.021293418
39	0xbca51a72	-0.020154212
40	0xbd6d56ac	-0.057943985
41	0xbd76fc91	-0.06029946
42	0xbd5a1e99	-0.053251836
43	0xbce3ba7e	-0.027798887
44	0x3b40dd6f	0.002942886
45	0xbd3ae5e7	-0.04562941
46	0x3d825688	0.06364161
47	0x3cd94cd9	0.026525902
48	0xbd8adac7	-0.0678001
49	0x3da2decc	0.079526514
50	0x3bdeacd4	0.006795505
51	0xbd8e52a4	-0.06949356
52	0xbd8848e6	-0.06654529
53	0xbcca3831	-0.024684997
54	0xbd2c4529	-0.042058144
55	0x3d8e0952	0.069353715
56	0xbca22a9a	-0.019795705
57	0xbbe64b2b	-0.0070280037
58	0x3d8f9207	0.070102744
59	0x3d929820	0.07157922
60	0x3c6f24a3	0.014596137
61	0xbd2b68a9	-0.04184786
62	0xbcf8b5c8	-0.030360118
63	0xbdb729ff	-0.08943557
64	0x3db9e057	0.090759926
65	0xbb97c78d	-0.0046319426
66	0x3caad5c5	0.020853886
67	0xbd85854b	-0.06519564
68	0xbbfc7b44	-0.007705124
69	0x3c9d1409	0.019174593
70	0xbda89d03	-0.082330726
71	0xbd90e820	-0.07075524
72	0x3cbd165b	0.023081949
73	0xbd8377e9	-0.064193554
74	0x3d114b39	0.03547213
75	0x3d672425	0.056430954
76	0xbd735117	-0.059403505
77	0xbd85d363	-0.065344594
78	0x3da2d1f5	0.079502024
79	0x3b26fe04	0.0025480995
80	0xbce72caa	-0.02821954
81	0x3d3762e4	0.044772044
82	0xbd076a8c	-0.033060595
83	0x3ca2ab47	0.019857062
84	0xbc9d6665	-0.019213865
85	0x3d716aa0	0.058939576
86	0x3aad7c4e	0.0013235898
87	0x3d8a9a75	0.067677416
88	0xbc851d32	-0.016249273
89	0xbca4a3eb	-0.020097693
90	0xbd582c02	-0.052776344
91	0xbd10c346	-0.035342477
92	0x3c85961f	0.016306935
93	0x3c63efa0	0.0139121115
94	0xbd84c199	-0.06482238
95	0xbd76b275	-0.060228784
96	0x3d94c123	0.072634004
97	0x3c36f28a	0.011166224
98	0xbcbe491a	-0.023228217
99	0x3d2a68d1	0.041603867
100	0x3d82c1e9	0.06384642
101	0xbc379a00	-0.01120615
102	0x3d1574d0	0.036488354
103	0xbd5cbc87	-0.05389073
104	0xbda70e73	-0.08157053
105	0xbcb9857f	-0.022646664
106	0xbc1319e1	-0.008978338
107	0x3d856000	0.06512451
108	0x3cd44dce	0.025916006
109	0xbcf2cc0b	-0.02963831
110	0x3dbae271	0.091252215
111	0x3c58c605	0.013230805
112	0xbc2be676	-0.010491958
113	0x3d844b5a	0.06459685
114	0xbd8129b0	-0.063067794
115	0xbd75ed7a	-0.06004093
116	0xbd84b410	-0.06479657
117	0xbd23d852	-0.04000122
118	0xbd6bdc64	-0.057583228
119	0x3d00b48e	0.03142219
120	0xbc53e07d	-0.01293194
121	0xbda566c8	-0.080762446
122	0x3d72ceca	0.05927924
123	0x3d835b5d	0.064139105
124	0x3c8bbc81	0.01705766
125	0x3d8958f5	0.0670642
126	0xbd8183d4	-0.06323972
127	0xbbc57dae	-0.006026945

rnn.weight_ih_l2 f4 [128, 128]
0	0x3d95e679	0.0731935
1	0xbcc0fa70	-0.023556918
2	0xbc021db6	-0.007941654
3	0xbd64abb8	-0.055827826
4	0xbc40755d	-0.011746732
5	0xbd75800a	-0.05993656
6	0xbc01c7b3	-0.007921147
7	0x3c3bb87d	0.01145756
8	0x3d7d3101	0.061814312
9	0x3bd7fa4a	0.006591116
10	0xbd1e056c	-0.03857939
11	0x3cdaa3ec	0.026689492
12	0xbd867c41	-0.06566668
13	0xbcc28705	-0.023746023
14	0x3dbb59e1	0.091480024
15	0xbd4d18ab	-0.050072353
16	0x3c43c708	0.011949308
17	0xbde3cbca	-0.11122854
18	0xbd2989eb	-0.041391294
19	0xbcbc6ed6	-0.02300207
20	0xbdda8f84	-0.10671905
21	0x3d39c1ff	0.045351025
22	0x3cd83605	0.026392946
23	0x3bd416b0	0.006472431
24	0xbdbf3d43	-0.093378566
25	0xbc6de10d	-0.014518988
26	0x3db201bc	0.08691737
27	0x3d2f6e1c	0.042829618
28	0x3cb8de45	0.022566924
29	0x3de79ad9	0.11308832
30	0x3d80e925	0.06294469
31	0xbd4315a0	-0.047628045
32	0xbd802b7e	-0.062582955
33	0x3d2e1f00	0.042510033
34	0x3d0c6dec	0.034284517
35	0x3cf41f38	0.029800043
36	0xbde85721	-0.113447435
37	0xbd449d65	-0.048001666
38	0xbafab37a	-0.0019126975
39	0xbac7c76c	-0.0015241927
40	0xbbdcba85	-0.006736102
41	0xbdcdec19	-0.10054798
42	0x3c77bd00	0.015120745
43	0xbce21918	-0.027599856
44	0xbcad9e2d	-0.021193588
45	0x3cb00bd9	0.021490024
46	0xbd7ced69	-0.06174985
47	0xbc80d262	-0.015725318
48	0x3d5ee13a	0.05441401
49	0xbd190639	-0.03735945
50	0xbd00de99	-0.031462286
51	0x3d262faa	0.0405728
52	0x3d73655d	0.05942284
53	0xbdb37405	-0.08762363
54	0xbd2c0566	-0.041997336
55	0x3d2a2649	0.041540418
56	0xbd9d384d	-0.07676754
57	0xbd99f514	-0.07517448
58	0x3d5ec340	0.054385424
59	0x3da1e4cc	0.07904968
60	0x3d61f7e8	0.055168062
61	0x3ce416ed	0.027842963
62	0x3bad6bdd	0.0052923993
63	0xb9a33444	-0.00031128724
64	0x3dac7aae	0.08421837
65	0x3dc04ea1	0.09389997
66	0x3d0ca356	0.034335457
67	0xbd6ea463	-0.05826224
68	0x3a53519c	0.0008061172
69	0xbd021061	-0.0317539
70	0x3d06c12c	0.032899067
71	0xbd77330f	-0.060351428
72	0xbd3ffa24	-0.046869412
73	0xbd6724a1	-0.056431416
74	0xbddd35d8	-0.108012855
75	0x3d58fb63	0.052974116
76	0x3dcfb0fa	0.101411775
77	0xbd083284	-0.0332513
78	0xbd5aa447	-0.053379323
79	0xbd143769	-0.036185656
80	0x3d5f708b	0.05455069
81	0x3ce668d3	0.028126156
82	0xbdaed74d	-0.08537159
83	0xb9640d1c	-0.00021748658
84	0xbd4b1936	-0.04958459
85	0xbd5ca758	-0.05387053
86	0x3d13bde3	0.036069762
87	0x3d668460	0.056278586
88	0xbdaa71fb	-0.08322521
89	0x3d170052	0.03686554
90	0xbc794a81	-0.015215517
91	0xbdb26b57	-0.0871188
92	0xbd0177fd	-0.03160857
93	0xbd857f62	-0.06518437
94	0x3dc87b2c	0.09789118
95	0xbb02fcc1	-0.001998708
96	0x3e0a174b	0.13485448
97	0xbc118f4d	-0.008884263
98	0x3d3afaa4	0.045649186
99	0x3df1fc29	0.11815674
100	0x3dcb02a9	0.09912617
101	0xbd896ff7	-0.06710809
102	0xbcfc4478	-0.030794367
103	0x3de5cf4a	0.11221178
104	0x3d8eae8c	0.06966886
105	0xbc97facc	-0.018552206
106	0x3c4a179b	0.01233473
107	0xbd27713f	-0.040879484
108	0x3d8bfa5a	0.0683486
109	0x3de4c54d	0.11170445
110	0x3e0f259d	0.13979192
111	0xbdbbeca3	-0.09175994
112	0x3ccf80a5	0.025329897
113	0xbc3d9629	-0.0115714455
114	0x3db1cff8	0.08682245
115	0xbd6a019f	-0.057130452
116	0x3c3faf0a	0.011699447
117	0xbc2dfff1	-0.010620103
118	0x3d7ccd73	0.06171937
119	0xbb97240d	-0.004612452
120	0x3dcd7590	0.10032189
121	0x3d3d084f	0.0461505
122	0xbd956d2e	-0.07296215
123	0x3dde6ea2	0.10860945
124	0x3dd85a59	0.105641074
125	0x3da7f57e	0.08201121
126	0xbd136bc4	-0.035991445
127	0xbdd6de03	-0.10491564
128	0x3d951bdc	0.072807044
129	0xbcd44da1	-0.025915923
130	0x3cfd5362	0.03092355
131	0x3d05807c	0.032593235
132	0x3d9728c9	0.07380826
133	0x3cc23564	0.0237071
134	0xbd5c651c	-0.053807363
135	0xbc65f3ef	-0.014035209
136	0x3d7ad663	0.06123961
137	0xbcf9991c	-0.030468516
138	0x3d985538	0.07438129
139	0xbd4c8552	-0.04993183
140	0xbd27057f	-0.040776726
141	0xbd9e3522	-0.07724978
142	0xbd6f5d69	-0.058438692
143	0xbc3e24ae	-0.011605425
144	0x3db520e7	0.08844166
145	0x3b52a647	0.0032142566
146	0xbd7052b0	-0.058672607
147	0x3db90960	0.09034991
148	0xbd191d64	-0.037381545
149	0xbcf674a2	-0.030084912
150	0x3c97e4a5	0.018541643
151	0xba8f3d06	-0.001092822
152	0x3d957238	0.07297176
153	0x3da44c0f	0.080223195
154	0xbd019942	-0.0316403
155	0x3b290784	0.0025791833
156	0x3da3c113	0.0799581
157	0xbb0fb742	-0.0021929299
158	0xbd989308	-0.07449919
159	0x3d137694	0.036001757
160	0xbce3fd27	-0.027830673
161	0xbdc5046b	-0.09619983
162	0xbcb77258	-0.02239339
163	0xbceddcd5	-0.029035965
164	0x3cb5baa4	0.022183724
165	0x3c8c91b6	0.017159324
166	0xbcf90efb	-0.030402651
167	0xbd883a07	-0.06651693
168	0xbd878ce6	-0.06618671
169	0xbd30cbf2	-0.043163247
170	0xbd8873f8	-0.06662744
171	0x3d516f02	0.051131256
172	0xbcc7e0cd	-0.024399186
173	0x3c676760	0.014123768
174	0xbcb781b9	-0.022400724
175	0x3cfff289	0.03124358
176	0x3d8c796d	0.06859098
177	0xbcd6758e	-0.026179101
178	0xbbca4152	-0.0061723376
179	0xbd8ad45d	-0.06778786
180	0x3c41e18c	0.01183356
181	0xbd76b3f7	-0.06023022
182	0xbd0d9ac4	-0.034571424
183	0x3d9de7cf	0.077102296
184	0x3d3ba315	0.045809824
185	0x3d9d1125	0.07669286
186	0x3d8a837a	0.067633584
187	0xbd53897c	-0.051644787
188	0xbd804238	-0.0626263
189	0x3d030bf2	0.031993814
190	0xbb19d8a5	-0.0023475077
191	0xbcf9a014	-0.030471839
192	0x3d255023	0.040359627
193	0x3d8172a9	0.06320698
194	0x3d650b2e	0.055918865
195	0xbb6c78d1	-0.0036082754
196	0xbd9afd33	-0.07567825
197	0xbc374bf0	-0.0111875385
198	0x3dd7ccc7	0.10537105
199	0xbd79fea5	-0.061033864
200	0xbda51625	-0.08060864
201	0xbdaf8605	-0.08570484
202	0x3b9b786f	0.0047445814
203	0x3cb0a1a9	0.02156146
204	0xbb17d08a	-0.002316507
205	0x3d95a6d1	0.07307208
206	0x3d0d2556	0.034459434
207	0xba9afbc5	-0.0011824301
208	0x3b91b379	0.0044464436
209	0xbd7f3f01	-0.062315945
210	0x3cc3eca1	0.023916544
211	0xbb8a6834	-0.0042238478
212	0xbd981be1	-0.074271925
213	0xbceb91dc	-0.028756075
214	0xbcc4370c	-0.02395203
215	0xbdb692b0	-0.08914697
216	0xbdc69361	-0.09696079
217	0xbc5398b1	-0.012914822
218	0x3b8b400e	0.0042495793
219	0xbd9d7f7c	-0.07690331
220	0x3daa1a4b	0.08305796
221	0xbd4af3c5	-0.049548883
222	0xbd34e9d4	-0.04416831
223	0xbc572fa1	-0.013133914
224	0xbd24e290	-0.04025513
225	0xbd3e175e	-0.046409003
226	0xbdc8b6f1	-0.09800518
227	0x3dcf7f08	0.10131651
228	0x3d906360	0.07050204
229	0xbd0068d2	-0.031349964
230	0xbb8d7f2c	-0.0043181386
231	0x3d92833e	0.07153939
232	0x3c94ad5b	0.018149069
233	0xbcda88f6	-0.026676636
234	0x3d9e3ea9	0.07726795
235	0xbda4919a	-0.08035584
236	0xbdaab415	-0.08335129
237	0x3d5fa2f1	0.054598752
238	0xbbdb0753	-0.0066842227
239	0x3d31b596	0.043386064
240	0x3d4a0d97	0.049329367
241	0xbd2a9a18	-0.04165086
242	0xbc831dc2	-0.0160054
243	0x3d11670d	0.035498668
244	0x3d909baa	0.070609406
245	0xbc553064	-0.0130120255
246	0x3d33a473	0.043858003
247	0x3d2c76fb	0.042105656
248	0x3d4b4ae2	0.04963196
249	0xbc287bb7	-0.010283402
250	0xbd4d98dd	-0.05019461
251	0xbd553eb3	-0.052061748
252	0x3d9fd6eb	0.07804664
253	0x3db6fa09	0.08934409
254	0x3ce132e6	0.02749009
255	0x3d35f336	0.044421397
